张芮/week2/homework/model.bin (torch, 2005 bytes, 2 tensors)

layer1.weight f4 [5, 5]
0	0x40a0b6fb	5.0223365
1	0xc0103f72	-2.2538724
2	0xc0117210	-2.2725868
3	0xc007f8b5	-2.1245549
4	0xbff1c542	-1.8888323
5	0xc0150114	-2.3281908
6	0x409ce8ec	4.903433
7	0xc010a934	-2.2603273
8	0xbff50c8f	-1.9144458
9	0xc00a4e28	-2.1610203
10	0xc0088d77	-2.1336343
11	0xc005ed09	-2.0925925
12	0x40a1a1df	5.0510097
13	0xc008da3b	-2.1383197
14	0xc00f6a14	-2.2408495
15	0xc0132bdb	-2.2995517
16	0xc00f10c9	-2.2353995
17	0xc000e93a	-2.014235
18	0x409dfa75	4.9368234
19	0xc008c610	-2.1370888
20	0xc00faad5	-2.2448018
21	0xc00d1a3f	-2.204727
22	0xc001c931	-2.0279047
23	0xc0100451	-2.2502635
24	0x40a517c3	5.1591506

layer1.bias f4 [5]
0	0xbe648d37	-0.22319494
1	0xbde7f5b4	-0.11326161
2	0xbe7c87fd	-0.2466125
3	0xbdcbdfec	-0.09954819
4	0xbe258759	-0.16164912
